…
() %&gt;%\n   layer_max_pooling_2d(pool_size = c(2,2)) %&gt;%\n   layer_dropout(0.4) %&gt;%\n\n# Flatten layer\n   layer_flatten() %&gt;%\n\n# Dense layers\n   layer_dense(units = 256, activation = 'relu') %&gt;%\n   layer_dense(units = 10, activation = 'softmax')\n\nmodel.2 %&gt;% summary()\n\n\nModel: \"sequential_1\"\n________________________________________________________________________________\n Layer (type)                  Output Shape               Param #    Trainable  \n================================================================================\n conv2d_9 (Conv2D)             (None, 32, 32, 32)         896        Y          \n batch_normalization_9 (Batch  (None, 32, 32, 32)         128        Y          \n Normalization)                                                                 \n conv2d_8 (Conv2D)             (None, 32, 32, 32)         9248       Y          \n batch_normalization_8 (Batch  (None, 32, 32, 32)         128        Y          \n Normalization)                                                                 \n max_pooling2d_4 (MaxPooling2  (None, 16, 16, 32)         0          Y          \n D)                                                                             \n dropout_4 (Dropout)           (None, 16, 16, 32)         0          Y          \n conv2d_7 (Conv2D)             (None, 16, 16, 64)         18496      Y          \n batch_normalization_7 (Batch  (None, 16, 16, 64)         256        Y          \n Normalization)                                                                 \n conv2d_6 (Conv2D)             (None, 16, 16, 64)         36928      Y          \n batch_normalization_6 (Batch  (None, 16, 16, 64)         256        Y          \n Normalization)                                                                 \n max_pooling2d_3 (MaxPooling2  (None, 8, 8, 64)           0          Y          \n D)                                                                             \n dropout_3 (Dropout)           (None, 8, 8, 64)           0          Y          \n conv2d_5 (Conv2D)             (None, 8, 8, 128)          73856      Y          \n batch_normalization_5 (Batch  (None, 8, 8, 128)          512        Y          \n Normalization)                                                                 \n conv2d_4 (Conv2D)             (None, 8, 8, 128)          147584     Y          \n batch_normalization_4 (Batch  (None, 8, 8, 128)          512        Y          \n Normalization)                                                                 \n max_pooling2d_2 (MaxPooling2  (None, 4, 4, 128)          0          Y          \n D)                                                                             \n dropout_2 (Dropout)           (None, 4, 4, 128)          0          Y          \n flatten_1 (Flatten)           (None, 2048)               0          Y          \n dense_3 (Dense)               (None, 256)                524544     Y          \n dense_2 (Dense)               (None, 10)                 2570       Y          \n================================================================================\nTotal params: 815914 (3.11 MB)\nTrainable params: 815018 (3.11 MB)\nNon-trainable params: 896 (3.50 KB)\n________________________________________________________________________________\n\n\nSince we observed overfitting issues in the plot for our initial model, we decided to adjust the capacity o
…
